~/chrome-dev-disabled-security/Default/optimization_guide_prediction_model_downloads/83ead960-7180-446b-b7e4-38deef933c06/model.tflite (tflite, 67216 bytes, 5 tensors)

dnn/hiddenlayer_1/bias/part_0 f4 [64]
0	0x3da9d66a	0.08292849
1	0x3e0f048d	0.1396658
2	0x3da55f29	0.08074791
3	0x3c132de4	0.008983109
4	0x3db0ce44	0.08633092
5	0x3df52e57	0.11971729
6	0x39d2bc78	0.0004019474
7	0x3d9ea749	0.07746751
8	0xbcd05a36	-0.02543364
9	0x3be920de	0.007114514
10	0xbcac93e4	-0.021066613
11	0xbb3dc5bc	-0.002895697
12	0x3c3af06e	0.011409862
13	0xbb7131b5	-0.003680331
14	0xbd10ceab	-0.035353344
15	0xbd8e15e3	-0.06937768
16	0x3ccf2ab6	0.02528892
17	0xbd0c432c	-0.034243748
18	0xbd0ea62f	-0.034826454
19	0xbd131879	-0.03591201
20	0xbdb6c946	-0.089251086
21	0x3cc60d03	0.024176126
22	0xbcf925ac	-0.030413471
23	0x3ddb1e46	0.106991336
24	0x3c594916	0.013262054
25	0x3de60dd7	0.112331085
26	0x3dc4da83	0.0961199
27	0xbd92f655	-0.0717589
28	0x3d11fd2d	0.035641838
29	0x3cf20005	0.029541025
30	0xbda28e29	-0.07937271
31	0x3be8d10a	0.0071049975
32	0xbc1f1315	-0.009709139
33	0xbc9503df	-0.018190322
34	0x3d930ff7	0.071807794
35	0x3cc3f8a9	0.023922281
36	0xbd309a9f	-0.04311621
37	0xbcb8c240	-0.022553563
38	0x3d6051e1	0.054765586
39	0x3da0301c	0.07821676
40	0x3b5eb146	0.0033980175
41	0xbc80a8c8	-0.015705481
42	0x3bc2fe4a	0.005950724
43	0xbb7a703e	-0.0038213874
44	0x3cc96128	0.02458246
45	0x3d950c24	0.07277706
46	0x3d1c6fd5	0.03819259
47	0x3dcc0fc2	0.09963943
48	0xbd0478bd	-0.032341707
49	0xbd85db32	-0.06535949
50	0xbcb70771	-0.022342416
51	0x3ce27cde	0.027647432
52	0x3a8234bb	0.0009933928
53	0x3cabd5a2	0.020975892
54	0x3cb938d8	0.022610113
55	0x3d1340b3	0.035950374
56	0x3cf6a271	0.030106755
57	0xbad30643	-0.0016099889
58	0xbc17c93f	-0.009264289
59	0xbda9ee37	-0.08297389
60	0xbcdba68b	-0.026812812
61	0xbda160d2	-0.07879795
62	0x3d18333a	0.03715823
63	0xbbcfd5a0	-0.0063426048

dnn/hiddenlayer_0/bias/part_0 f4 [128]
0	0x3d2d355f	0.042287227
1	0xbcca1aff	-0.024671076
2	0x3d0623e4	0.03274907
3	0x3d2d4834	0.042305186
4	0xbcb6e416	-0.022325557
5	0xbcf9e18a	-0.030503053
6	0x3e0c0017	0.1367191
7	0x3dce1ff3	0.100646876
8	0x3b4de34c	0.0031415997
9	0xbd5d7f39	-0.054076407
10	0x3cf2828a	0.029603262
11	0xbd4e6c54	-0.05039628
12	0x3da29451	0.07938445
13	0xbd98a633	-0.07453575
14	0x3d138c75	0.036022622
15	0xbc8d2484	-0.017229326
16	0x3b5768b6	0.003286881
17	0xbd63059e	-0.05542528
18	0xbd733af6	-0.0593824
19	0x3db7a52c	0.08967051
20	0xbd0933c0	-0.03349662
21	0xbd04111d	-0.032242883
22	0xbd160bc0	-0.0366323
23	0x3d0bf7cb	0.03417186
24	0xbc680678	-0.0141616985
25	0xba3aa52b	-0.0007119949
26	0xbd0f77df	-0.035026427
27	0x3c33e54f	0.010979964
28	0x3d45c3aa	0.048282303
29	0xbc2ad621	-0.010427029
30	0x3e279c81	0.16368295
31	0x3d5d0da6	0.053968094
32	0x3d7b6d5f	0.0613836
33	0x3965cace	0.00021914692
34	0xbc2ca77d	-0.010537979
35	0x3b00654b	0.0019591625
36	0xbbd8807c	-0.0066071134
37	0x3d242a72	0.04007954
38	0xbd680971	-0.05664963
39	0x3c22d1b4	0.009937692
40	0xbcce7fea	-0.025207479
41	0xbe995d20	-0.2995386
42	0x3a7e0c8f	0.00096912024
43	0xbce43eb1	-0.027861925
44	0xbbf2e85d	-0.007412954
45	0xbb21840d	-0.0024645359
46	0x3c222686	0.00989688
47	0xbd1351d8	-0.035966724
48	0xbd79fe5e	-0.0610336
49	0x3d86f628	0.06589919
50	0x3d5acd5b	0.0534185
51	0xbd63fa35	-0.055658538
52	0x3d5f606e	0.054535322
53	0xbc94dffe	-0.018173214
54	0x3c8c7664	0.017146297
55	0xbc846930	-0.016163439
56	0xbd1fd850	-0.03902465
57	0x3d56f451	0.052479092
58	0xbb060c0b	-0.0020453956
59	0x3c48b7fa	0.012250895
60	0xbd9c830c	-0.07642183
61	0xbc94da3a	-0.018170465
62	0xbc3c08f9	-0.011476749
63	0xbce3e434	-0.027818777
64	0xbcb268e6	-0.021778535
65	0xbca48c80	-0.020086527
66	0x3ce3f8bb	0.027828565
67	0x3ce34e37	0.027747257
68	0xbd2e7aed	-0.0425977
69	0x3d5ffb3f	0.054682966
70	0x3cfec69e	0.031100567
71	0xbd1fd88d	-0.03902488
72	0xbdb73388	-0.08945376
73	0x3d198d22	0.03748811
74	0x3c63409c	0.013870385
75	0xbcda2741	-0.026630046
76	0x3d0a0a9f	0.033701535
77	0xbc31c25b	-0.010849561
78	0xbc148b0c	-0.0090663545
79	0xbc162a4a	-0.009165356
80	0xbc0705d5	-0.008241137
81	0xbc182644	-0.009286467
82	0xbc34c86e	-0.011034114
83	0xbd8cd02b	-0.068756424
84	0xbdd15211	-0.10220731
85	0xbdc950ae	-0.098298416
86	0xbc46d0f6	-0.012134781
87	0xbc11e4e2	-0.008904668
88	0xbbaa77b7	-0.0052022594
89	0xbe2ea221	-0.17054035
90	0x3d87eac3	0.06636574
91	0x3aac1b2f	0.001313066
92	0x3d262ab6	0.040568076
93	0xbc8b5288	-0.017007127
94	0xbcb4b6cb	-0.022059819
95	0x3d80c34b	0.06287249
96	0xbd4f2996	-0.05057677
97	0xbd74ee8c	-0.05979781
98	0xbdd12953	-0.1021296
99	0x3cab40c8	0.020904914
100	0x3b2cac30	0.002634775
101	0xbe0a981c	-0.13534588
102	0x3c67802c	0.01412968
103	0x3da02520	0.07819581
104	0x3c8a0da4	0.016852207
105	0x3c3d4a5f	0.011553376
106	0x3d507d6e	0.05090087
107	0xbe204ded	-0.15654726
108	0xbbf93e6b	-0.0076063178
109	0xbd034afb	-0.03205393
110	0x3d9a5a50	0.07536757
111	0x3d114db2	0.035474487
112	0xbd0826bb	-0.03324006
113	0xbdcadec1	-0.09905768
114	0x3cf87efc	0.030333988
115	0x3d10a7fc	0.035316452
116	0x3d2432c1	0.040087465
117	0xbd78aba4	-0.060710564
118	0x3d831877	0.06401151
119	0x3c81ce1a	0.015845347
120	0xbda25b5a	-0.0792758
121	0x3d50bb06	0.05095961
122	0xbd11d274	-0.035601094
123	0x3c745e27	0.014915026
124	0x3d690f16	0.056899153
125	0x3de51fea	0.11187728
126	0x3de23801	0.11045838
127	0xbc96297d	-0.01833033

dnn/hiddenlayer_0/MatMul f4 [128, 12]
0	0xbe0e1c88	-0.13878071
1	0x3e21c272	0.15796831
2	0xbd9de467	-0.0770958
3	0xbc8f9401	-0.017526628
4	0xbe169c17	-0.14707981
5	0x3da36763	0.07978704
6	0x3d479f69	0.04873601
7	0x3d1f8cdc	0.038952693
8	0x3c931167	0.017952634
9	0xbd964c45	-0.07338766
10	0x3e6d643f	0.23182772
11	0xbda1be5b	-0.078976355
12	0x3e0695d8	0.13143098
13	0x3e1a3744	0.15060145
14	0x3db03ffa	0.086059526
15	0x3e06e258	0.13172281
16	0xbe6d6777	-0.23184
17	0x3d7f0dac	0.062268898
18	0x3e54bfba	0.20776263
19	0xbe36e429	-0.17860474
20	0xbd0fe997	-0.035134878
21	0x3ddfb306	0.10922818
22	0xbe473591	-0.19454028
23	0xbd7eec1c	-0.06223689
24	0xbd3a1735	-0.04543229
25	0xbe2105c9	-0.15724863
26	0xbd00cb17	-0.03144368
27	0x3e761ed1	0.24035193
28	0xbe27c020	-0.16381884
29	0x3e4a8ef4	0.19781095
30	0x3e277b64	0.16355664
31	0x3d5557dc	0.052085742
32	0x3bdb40fe	0.0066910973
33	0xbd12d49f	-0.035847303
34	0x3d7a499b	0.061105352
35	0x3e2bd55b	0.16780607
36	0x3db5e2ab	0.08881124
37	0x3d24661a	0.040136434
38	0xbdb1c541	-0.08680201
39	0xbe212102	-0.15735248
40	0xbbde3907	-0.0067817005
41	0xbca31ab8	-0.019910201
42	0xbb8bb45d	-0.0042634443
43	0xbd766fb4	-0.060165122
44	0x3d5d8a23	0.054086816
45	0x3dbcaa7d	0.092122056
46	0x3d50b436	0.050953113
47	0xbdff958d	-0.124796964
48	0xbddb30f8	-0.107026994
49	0xbe61785b	-0.22018568
50	0x3dd2df0b	0.10296448
51	0xbe0d01b8	-0.13770187
52	0xbda672d4	-0.081273705
53	0x3d45bb62	0.048274405
54	0xbe1f7430	-0.15571666
55	0xbdcf1609	-0.10111625
56	0xbc54ccc0	-0.012988269
57	0xbd24d5e6	-0.040243052
58	0x3de96db8	0.1139788
59	0xbe49fcec	-0.19725388
60	0x3e3e9743	0.1861239
61	0x3db79707	0.08964353
62	0xbe3e23a3	-0.18568282
63	0xbb4c56c5	-0.0031179648
64	0x3e4c2224	0.19934899
65	0x3d84b905	0.06480602
66	0xbe4dddf1	-0.20104195
67	0xbd0b09a9	-0.03394476
68	0x3d85964e	0.06522809
69	0xbdfbae04	-0.1228905
70	0x3cca18e1	0.024670066
71	0x3d4ea1cb	0.050447267
72	0xbc9691ed	-0.01838013
73	0xbc34d19c	-0.011036303
74	0x3dd2147d	0.10257814
75	0xbd26a1d5	-0.04068168
76	0x3dda9158	0.10672253
77	0xbb6dd50c	-0.0036290316
78	0xbcccdcf1	-0.025007697
79	0x3dc26403	0.09491732
80	0x3e071d72	0.13194826
81	0xbe83793c	-0.25678432
82	0x3cb93588	0.022608534
83	0x3e881801	0.26580814
84	0x3e4bc82d	0.1990058
85	0xbe0f0a00	-0.13968658
86	0x3e6635e3	0.22481494
87	0xbdf64f1e	-0.12026809
88	0xbe0671c3	-0.13129334
89	0x3d5c14d7	0.053730812
90	0x3ccd73dd	0.025079662
91	0xbd6daf83	-0.05802871
92	0x3bf75664	0.0075481404
93	0xbe199c19	-0.15000953
94	0x3d1148c5	0.03546979
95	0x3ea1a070	0.31567717
96	0x3e15c7a6	0.14626941
97	0x3e14f5bb	0.14546864
98	0xbe8e1a72	-0.2775455
99	0x3d031ebd	0.032011736
100	0x3e170db3	0.1475132
101	0x3e2b4073	0.16723804
102	0xbe4aed7e	-0.19817159
103	0x3dc2b30b	0.09506806
104	0xbcd10686	-0.025515806
105	0xbe162e39	-0.1466607
106	0xbc1673dc	-0.009182896
107	0x3db2487f	0.08705234
108	0xbe0bf585	-0.13667877
109	0xbe0cc71a	-0.13747826
110	0x3d373a55	0.044733364
111	0xbdd8b52a	-0.10581429
112	0x3e1bb03e	0.1520395
113	0xbde2ad52	-0.110682145
114	0xbc6086e7	-0.013704038
115	0x3e1b7bff	0.1518402
116	0x3d83823e	0.06421326
117	0x3d224d5f	0.039624568
118	0xbe478a0e	-0.19486257
119	0x3b39c5eb	0.0028346728
120	0x3e6b7b54	0.22996265
121	0xbe15bdcc	-0.14623183
122	0x3dbf7cdb	0.09349986
123	0xbe74c5c2	-0.23903564
124	0xbe18bea8	-0.1491648
125	0xbe3e597c	-0.18588823
126	0xbd8e5fd2	-0.0695187
127	0x3da46218	0.080265224
128	0xbcddecc2	-0.027090434
129	0x3e2275d6	0.15865263
130	0xbe4556c7	-0.19271384
131	0xbd644e06	-0.05573847
132	0x3e2a3b53	0.16624193
133	0xbbb7d5de	-0.0056102118
134	0x3b8618cc	0.0040923115
135	0xbd9a12c8	-0.075231135
136	0xbc4ad3da	-0.012379611
137	0x3e741789	0.23837103
138	0xbe89cb97	-0.2691314
139	0x3d8f9b9d	0.07012103
140	0xbd033fd2	-0.032043286
141	0x3d593a7a	0.053034283
142	0xbd5b7f7d	-0.05358838
143	0x3e536650	0.20644498
144	0xbe217260	-0.15766287
145	0x3cbfd030	0.023414701
146	0x3e06d9e8	0.13169062
147	0xbd037b63	-0.032100093
148	0xbc47f993	-0.012205499
149	0xbdf07b9a	-0.11742325
150	0x3c9b3a03	0.01894856
151	0xbdbe4a8e	-0.09291564
152	0xbd002923	-0.03128923
153	0xbdf1bfc4	-0.118041545
154	0xbd5bd786	-0.053672336
155	0x3e32a5d8	0.17446077
156	0xbdf0b1c8	-0.11752659
157	0xbdf7ad7b	-0.12093636
158	0xbe07b994	-0.13254386
159	0xbcce3ead	-0.02517637
160	0xbdd3c09a	-0.1033947
161	0x3b37f218	0.0028067883
162	0x3e275e9b	0.16344683
163	0xbd9ef71a	-0.07761975
164	0xbadfa8a4	-0.0017063809
165	0x3e2c51ff	0.16828154
166	0x3d40591f	0.046959992
167	0x3dd8dbfb	0.10588833
168	0xbe29c6b7	-0.1657971
169	0x3dccc59d	0.09998629
170	0xbde358b7	-0.111009054
171	0x3ba362fd	0.0049861656
172	0xbded3a4f	-0.11583387
173	0x3da73c77	0.0816583
174	0x3cf7501f	0.030189572
175	0xbd89009a	-0.06689568
176	0xbe04566b	-0.12923591
177	0x3d6e7789	0.058219466
178	0x3e3f7245	0.18695934
179	0x3dbec400	0.09314728
180	0x3d58614f	0.052827176
181	0x3e06ed90	0.1317656
182	0xbc3d88b5	-0.011568238
183	0xbd9ce50f	-0.07660877
184	0x3d7aeeab	0.061262768
185	0x3e07b4e4	0.13252598
186	0xbe1bd20a	-0.15216842
187	0x3e0a0187	0.13477145
188	0x3c205c88	0.009787686
189	0x3d3010c3	0.042984735
190	0xbd513b6a	-0.051082052
191	0x3e2682ba	0.16260806
192	0xbd15dccb	-0.036587518
193	0xbe2f6191	-0.17127062
194	0xbd44afa1	-0.048019055
195	0x3d44b277	0.04802176
196	0x3d85e75a	0.065382674
197	0x3e46feee	0.19433185
198	0x3da148a1	0.07875181
199	0xbd92c2b4	-0.07166043
200	0x3e1ddfb2	0.15417364
201	0xbe3f6bf1	-0.1869352
202	0xba55406f	-0.00081349065
203	0xbe2d9e28	-0.16954863
204	0x3ddef06e	0.10885702
205	0x3ca04a22	0.0195666
206	0x3e5dbce0	0.21654081
207	0x3da9aea5	0.08285264
208	0x3be2f640	0.006926328
209	0xbb9ce1ef	-0.0047876756
210	0xbe198a32	-0.14994124
211	0x3d81b464	0.06333235
212	0x3e49d073	0.19708423
213	0xbe79c868	-0.24392855
214	0xbcf114c5	-0.029428849
215	0x3dda264b	0.10651835
216	0xbd78f079	-0.060776208
217	0x3d998b5d	0.074972846
218	0xbe5af361	-0.21381904
219	0x3cfd5c78	0.030927882
220	0xbe117990	-0.14206529
221	0x3c7ee00e	0.0155563485
222	0x3d1b2e79	0.037886117
223	0x3cff8594	0.031191625
224	0x3d013e40	0.031553507
225	0xbe3e35ee	-0.1857526
226	0xbe094197	-0.13403927
227	0xbe569c5b	-0.20958082
228	0x3dc56294	0.09637943
229	0xbe1717b9	-0.14755143
230	0x3e5b9d33	0.21446685
231	0xbe807eef	-0.25096843
232	0x3e412c4a	0.18864551
233	0x3e57c458	0.21070993
234	0xbdb527b6	-0.08845465
235	0xbd96225e	-0.07330774
236	0xbdb90400	-0.09033966
237	0x3dadbe95	0.08483616
238	0xbe0965ce	-0.13417742
239	0x3cc47b9d	0.023984725
240	0xbe083f04	-0.13305289
241	0x3cd7d84f	0.026348261
242	0x3dfe0570	0.12403381
243	0xbe271ed1	-0.1632035
244	0xbe235bb1	-0.15952946
245	0x3d0a07c7	0.033698823
246	0x3e065953	0.13120012
247	0xbe2b7705	-0.16744621
248	0xbc236aa8	-0.009974159
249	0xbd44c73b	-0.048041563
250	0x3e1b2f6b	0.15154807
251	0xbd9abd65	-0.075556554
252	0x3e0c6add	0.1371264
253	0x3e03ce3e	0.12871644
254	0xbe49b58e	-0.19698164
255	0x3dc5a487	0.09650522

dnn/hiddenlayer_1/MatMul f4 [64, 128]
0	0x3e1b19be	0.15146539
1	0xbe2ac6df	-0.16677426
2	0xbe04e627	-0.12978421
3	0xbd8210af	-0.063508384
4	0xbd90c7ab	-0.07069334
5	0xbca5bfa8	-0.02023299
6	0x3e451482	0.19246104
7	0x3dc4085a	0.095719054
8	0xbca97d49	-0.020689623
9	0xbcd7a8fc	-0.026325695
10	0x3de95bb6	0.113944456
11	0xbd04bfd4	-0.032409504
12	0xbdf3fc0f	-0.11913311
13	0xbe1923ba	-0.14955035
14	0x3e2d66c2	0.1693373
15	0xbca39df9	-0.019972788
16	0x3e1d4a52	0.15360382
17	0x3e261ad4	0.16221172
18	0xbc2d807d	-0.010589716
19	0xbd5f9927	-0.054589417
20	0x3dcde9b1	0.10054339
21	0x3e33c523	0.1755567
22	0xbd8649a0	-0.065570116
23	0x3c89a05d	0.0168001
24	0xbbdc0978	-0.006714996
25	0x3dd1a3d7	0.10236328
26	0xbd5908da	-0.052986957
27	0xbd7d0a13	-0.061777186
28	0x3d378f4a	0.044814385
29	0xbb5eaa27	-0.003397593
30	0x3e0c934f	0.13728069
31	0x3c1826e6	0.009286618
32	0x3c17a000	0.009254456
33	0xbd92bcf7	-0.071649484
34	0xbe019b7b	-0.12656967
35	0xbde4dbb5	-0.11174718
36	0xbbdfcfcb	-0.006830191
37	0x3dd940c7	0.106080584
38	0x3e085c60	0.13316488
39	0x3d1b56a0	0.03792441
40	0x3c1b676f	0.00948511
41	0x3e2a2c24	0.16618401
42	0x3e2926a8	0.16518652
43	0x3e28a47e	0.16468999
44	0x3e18f61b	0.14937632
45	0x3ced7399	0.028985785
46	0x3cefbdf5	0.029265383
47	0x3d350e24	0.04420294
48	0x3c98ec2d	0.018667305
49	0xbe212aa8	-0.15738928
50	0x3d9ed000	0.077545166
51	0xbd302e70	-0.043013036
52	0xbd923cca	-0.07140501
53	0x3e13cb74	0.1443308
54	0x3d92d72f	0.07169949
55	0x3e1cd6d1	0.15316321
56	0xbe068113	-0.13135175
57	0xbd16a968	-0.036782652
58	0x3dfcd569	0.12345392
59	0xbd71821f	-0.058961984
60	0x3d5ca2f5	0.053866345
61	0x3df7b36b	0.12094768
62	0xbd6aee49	-0.057356153
63	0x3d32a61f	0.043615457
64	0x3d63c150	0.05560428
65	0xbdbdf89c	-0.09275934
66	0x3dcbdb53	0.09953942
67	0x3dd905d3	0.10596814
68	0x3b74b7af	0.003734093
69	0x3e14ecb6	0.14543423
70	0x3db124a9	0.086495705
71	0xbe1aa703	-0.15102772
72	0x3e21058a	0.15724769
73	0x3d2f2002	0.042755134
74	0x3de3a743	0.11115887
75	0xbd5da59f	-0.054113027
76	0xbdb97e13	-0.0905725
77	0xbdc96443	-0.098335765
78	0xbdbb704c	-0.09152278
79	0x3d9fc655	0.07801501
80	0xbe0a1a55	-0.13486607
81	0x3d9fed35	0.078089155
82	0x3e076989	0.13223852
83	0xbc090154	-0.008362133
84	0xbe1055f5	-0.1409529
85	0xbc94ce3c	-0.018164746
86	0xbc884d68	-0.016638473
87	0xbda9b146	-0.08285765
88	0xbde4a6ea	-0.11164649
89	0xbdb1c20c	-0.0867959
90	0x3e2a5586	0.16634187
91	0x3cb2c0cd	0.02182045
92	0x3e1fe5e7	0.15615045
93	0x39631ec2	0.00021659865
94	0xbe19c8a9	-0.15017952
95	0x3e02471d	0.1272244
96	0x3e01c551	0.12672926
97	0xbdb6652f	-0.08906018
98	0xbc08eecf	-0.008357718
99	0xbb41ded2	-0.0029582274
100	0xbdf6973a	-0.12040563
101	0x3e0c57e6	0.13705406
102	0x3df7caec	0.12099251
103	0x3d978c12	0.07399763
104	0x3e3d005d	0.1845717
105	0xbbeb0848	-0.007172618
106	0xbd5de715	-0.054175455
107	0xbe1c8f13	-0.15288953
108	0x3df8e710	0.12153447
109	0xba7e9858	-0.0009712032
110	0x3e315c79	0.17320432
111	0xbe02416e	-0.12720272
112	0x3d0fb772	0.035087056
113	0xbd4b8bad	-0.049693752
114	0xbe11a749	-0.1422397
115	0xbd91bbc7	-0.07115894
116	0x3db4cf59	0.08828611
117	0xbdca6308	-0.0988217
118	0x3de52422	0.111885324
119	0x3dc1ea27	0.09468489
120	0xbd10b014	-0.03532417
121	0x3e42f314	0.1903804
122	0x3904bc3c	0.00012658624
123	0x3d534bb4	0.051585868
124	0x3dfcad90	0.12337792
125	0x3e1e1045	0.15435894
126	0x3e147acd	0.1449997
127	0x3dd4d15f	0.10391497
128	0x3e39a86a	0.18130651
129	0xbc2cdfea	-0.010551432
130	0x3e0fe109	0.14050688
131	0x3ddf1558	0.10892743
132	0xbdaa3d9f	-0.083125345
133	0x3d90a7e8	0.070632756
134	0x3d3e68ac	0.04648654
135	0x3e1da6b3	0.15395622
136	0x3dea1c07	0.11431127
137	0x3d78e456	0.060764633
138	0x3e1c6d5b	0.15276091
139	0x3d17f4d5	0.037098724
140	0x3da01e52	0.07818283
141	0xbdb72a84	-0.08943656
142	0x3e0cfaf8	0.13767612
143	0x3e586190	0.21130967
144	0xbdb96388	-0.09052187
145	0xbd83da61	-0.06438137
146	0xbc8d7209	-0.01726629
147	0x3d8dfe79	0.069333024
148	0xbd654e20	-0.05598271
149	0x3bebd941	0.0071975295
150	0xbdeb7b2f	-0.11498105
151	0xbe05a6a5	-0.13051851
152	0x3e2203bd	0.15821739
153	0xbe038f32	-0.12847593
154	0xbd89e54f	-0.0673319
155	0xbddfd741	-0.10929728
156	0xbda50e24	-0.08059338
157	0xbde66a05	-0.1125069
158	0x3e5ae87e	0.21377751
159	0xbdd2f233	-0.10300102
160	0x3e372ce6	0.17888221
161	0x3d8f4a59	0.069966026
162	0x3e52f9ac	0.20603055
163	0x3e19abfb	0.15007012
164	0xbe215df8	-0.15758502
165	0x3e0e17e4	0.13876301
166	0x3be81295	0.0070822933
167	0xbd26679d	-0.040626157
168	0x3dc52f59	0.096281715
169	0x3e01df76	0.126829
170	0x3d1df76d	0.03856604
171	0xbe0c82fb	-0.1372184
172	0x3e4b1e6b	0.19835822
173	0x3e48f37d	0.19624133
174	0x3dda996c	0.10673794
175	0xbd96fc08	-0.0737229
176	0xbe0328f4	-0.12808591
177	0xbcbe685d	-0.023243124
178	0x3dd96a1b	0.10615941
179	0xbc372abb	-0.011179621
180	0xbe00d706	-0.12582025
181	0xbd8be9fc	-0.06831738
182	0xbe0a308c	-0.13495082
183	0x3e1ef158	0.15521753
184	0xbe2b5386	-0.1673108
185	0x3d675e34	0.056486323
186	0xbda5fe1b	-0.081051074
187	0xbda8a935	-0.08235399
188	0xbe0e3ff5	-0.13891585
189	0xbc606882	-0.013696792
190	0x3d41092b	0.047127884
191	0x3e0408b5	0.12893946
192	0x3d9f0d62	0.077662244
193	0xbde45833	-0.11149635
194	0xbe1c4fe8	-0.15264857
195	0xbe276ad5	-0.16349347
196	0x3d801bcb	0.06255301
197	0x3e0ca95f	0.13736485
198	0x3dad7497	0.084695034
199	0x3d85766c	0.06516728
200	0xbddc49be	-0.10756253
201	0x3d1e3105	0.038620967
202	0x3bd68a15	0.0065472224
203	0x3e3a981b	0.18222086
204	0x3c5e9310	0.013584867
205	0xbd6223b7	-0.05520984
206	0xbd69dd78	-0.057095975
207	0xbdf64fa3	-0.12026908
208	0x3d8a986a	0.06767352
209	0xbdcaf51b	-0.099100314
210	0xbe093504	-0.1339913
211	0x3dce5861	0.10075451
212	0x3e14d72a	0.14535204
213	0xbc360c2f	-0.011111303
214	0x3d00c0f2	0.031434007
215	0x3d9011d4	0.070346504
216	0x3e0c3272	0.13691118
217	0x3e6894cc	0.22713012
218	0x3c187d06	0.009307152
219	0x3e046942	0.12930778
220	0x3cc64b62	0.024205867
221	0x3df6c684	0.120495826
222	0xbe2da151	-0.16956069
223	0x3db0023d	0.08594177
224	0xbdbffda0	-0.09374547
225	0xbcf2fa05	-0.029660234
226	0xbd8ab870	-0.0677346
227	0x3e3a18a1	0.18173458
228	0x3d154e53	0.03645165
229	0xbd772007	-0.060333278
230	0x3e65ddc5	0.2244788
231	0x3e04d40f	0.12971519
232	0x3e2a96e9	0.1665913
233	0x3c62e39e	0.0138482135
234	0x3e088e4d	0.13335533
235	0xbda6cfb2	-0.081450835
236	0xbd9cf32b	-0.07663568
237	0xbd6e114f	-0.058121976
238	0x3d52de76	0.051481687
239	0x3e4ec284	0.2019139
240	0xbd9455d8	-0.07242936
241	0x3e25572f	0.16146539
242	0x3dac10b2	0.08401622
243	0x3d1c32d9	0.03813443
244	0x3e094510	0.13405252
245	0x3cae8647	0.021304263
246	0xbd24911f	-0.04017746
247	0x3d130a8b	0.035898726
248	0x3c49493a	0.012285525
249	0x3df5a070	0.11993492
250	0x3e321b09	0.17393126
251	0x3de965dd	0.11396382
252	0x3d95ad9c	0.07308504
253	0x3e5c3b06	0.2150689
254	0x3cbc97d6	0.02302162
255	0xbdef4fde	-0.11685155

dnn/logits/MatMul f4 [1, 64]
0	0x3e4a4ec2	0.19756606
1	0x3ed0e2bc	0.40797985
2	0x3e98cbfa	0.29843122
3	0x3e2db578	0.16963756
4	0x3eb2e6ff	0.3494186
5	0x3ecad3fe	0.39614862
6	0x3be3def8	0.00695407
7	0x3ee68531	0.45023492
8	0xbe9655e1	-0.29362395
9	0xbec599a9	-0.38593796
10	0xbd333572	-0.04375214
11	0xbd83d75a	-0.064375594
12	0x3e0a70c3	0.13519578
13	0x3ba02fa3	0.0048884912
14	0xbeb331db	-0.34998974
15	0xbe6ca011	-0.23107935
16	0x3e047af0	0.12937522
17	0xbed6295e	-0.41828436
18	0xbeba9e80	-0.3644905
19	0xbe87977a	-0.26482755
20	0xbe3f3e78	-0.18676174
21	0xbe06a990	-0.1315062
22	0xbe7dd29f	-0.24787377
23	0x3ed3e903	0.4138871
24	0xbdac6a01	-0.08418656
25	0x3ead3d91	0.33836034
26	0x3e9cb9b2	0.30610424
27	0xbe629eea	-0.22130933
28	0x3e139326	0.14411601
29	0x3e2d6ba0	0.16935587
30	0xbe878873	-0.2647129
31	0x3dfd8841	0.12379504
32	0xbc934c30	-0.017980665
33	0xbe986ee6	-0.2977211
34	0x3e91c416	0.28469914
35	0x3e04435a	0.12916318
36	0xbdaf0898	-0.08546561
37	0xbeab7cbf	-0.3349361
38	0x3e32dfef	0.17468236
39	0x3ea7925f	0.3272886
40	0xbe120d90	-0.14262986
41	0xbe59aba1	-0.21256877
42	0xbe85515c	-0.26038635
43	0x3e26fae8	0.1630665
44	0x3c9d99b4	0.01923833
45	0x3e5d0111	0.21582438
46	0x3e10e049	0.14148058
47	0x3eaff55c	0.34366882
48	0x3e28e0a5	0.16491945
49	0xbe824b75	-0.25448194
50	0xbe3aae4c	-0.18230551
51	0x3ea392a8	0.31947827
52	0x3ec3846f	0.38186976
53	0xbe9e72d9	-0.30946997
54	0x3e55631b	0.20838587
55	0x3e90f60e	0.28312725
56	0x3dff859a	0.12476654
57	0xbd755fb8	-0.059905738
58	0xbe193239	-0.14960565
59	0xbe7d728a	-0.24750724
60	0xbe21b00b	-0.15789811
61	0xbe967a17	-0.29390022
62	0x3e5dea03	0.216713
63	0x3e2b58af	0.16733049
